Model: "sequential_5"
_________________________________________________________________
 Layer (type)                Output Shape              Param #
=================================================================
 conv2d_8 (Conv2D)           (None, 26, 26, 32)        320
 max_pooling2d_8 (MaxPooling  (None, 13, 13, 32)       0
 2D)
 conv2d_9 (Conv2D)           (None, 11, 11, 10)        2890
 max_pooling2d_9 (MaxPooling  (None, 5, 5, 10)         0
 2D)
 flatten_5 (Flatten)         (None, 250)               0
 dropout_6 (Dropout)         (None, 250)               0
 dense_10 (Dense)            (None, 100)               25100
 dropout_7 (Dropout)         (None, 100)               0
 dense_11 (Dense)            (None, 10)                1010
=================================================================
Total params: 29,320
Trainable params: 29,320
Non-trainable params: 0
_________________________________________________________________
Epoch 1/10
(60000, 28, 28, 1) (10000, 28, 28, 1) (60000, 10) (10000, 10)