Model: "sequential_4"
_________________________________________________________________
 Layer (type)                Output Shape              Param #
=================================================================
 conv2d_6 (Conv2D)           (None, 26, 26, 6)         60
 max_pooling2d_6 (MaxPooling  (None, 13, 13, 6)        0
 2D)
 conv2d_7 (Conv2D)           (None, 11, 11, 3)         165
 max_pooling2d_7 (MaxPooling  (None, 5, 5, 3)          0
 2D)
 flatten_4 (Flatten)         (None, 75)                0
 dropout_4 (Dropout)         (None, 75)                0
 dense_8 (Dense)             (None, 100)               7600
 dropout_5 (Dropout)         (None, 100)               0
 dense_9 (Dense)             (None, 10)                1010
=================================================================
Total params: 8,835
Trainable params: 8,835
Non-trainable params: 0
_________________________________________________________________
Epoch 1/10