Model: "sequential_2"
_________________________________________________________________
 Layer (type)                Output Shape              Param #
=================================================================
 conv2d_2 (Conv2D)           (None, 26, 26, 48)        480
 max_pooling2d_1 (MaxPooling  (None, 13, 13, 48)       0
 2D)
 conv2d_3 (Conv2D)           (None, 11, 11, 96)        41568
 max_pooling2d_2 (MaxPooling  (None, 5, 5, 96)         0
 2D)
 conv2d_4 (Conv2D)           (None, 3, 3, 80)          69200
 conv2d_5 (Conv2D)           (None, 1, 1, 96)          69216
 flatten_1 (Flatten)         (None, 96)                0
 dropout_2 (Dropout)         (None, 96)                0
 dense_2 (Dense)             (None, 512)               49664
 dropout_3 (Dropout)         (None, 512)               0
 dense_3 (Dense)             (None, 10)                5130
=================================================================
Total params: 235,258
Trainable params: 235,258
Non-trainable params: 0
_________________________________________________________________
Epoch 1/10
2023-01-31 22:01:58.188501: I tensorflow/core/grappler/optimizers/custom_graph_optimizer_registry.cc:114] Plugin optimizer for device_type GPU is enabled.














1872/1875 [============================>.] - ETA: 0s - loss: 0.5315 - accuracy: 0.8007
…
