Model: "sequential_5"
_________________________________________________________________
 Layer (type)                Output Shape              Param #
=================================================================
 flatten_5 (Flatten)         (None, 784)               0
 dropout (Dropout)           (None, 784)               0
 dense_4 (Dense)             (None, 100)               78500
 dropout_1 (Dropout)         (None, 100)               0
 dense_5 (Dense)             (None, 10)                1010
=================================================================
Total params: 79,510
Trainable params: 79,510
Non-trainable params: 0
_________________________________________________________________
2023-01-31 19:04:47.530174: I tensorflow/core/grappler/optimizers/custom_graph_optimizer_registry.cc:114] Plugin optimizer for device_type GPU is enabled.
Epoch 1/10
   6/1875 [..............................] - ETA: 19s - loss: 2.2665 - accuracy: 0.1719  WARNING:tensorflow:Callback method `on_train_batch_end` is slow compared to the batch time (batch time: 0.0084s vs `on_train_batch_end` time: 0.0086s). Check your callbacks.
…
