Model: "sequential_2"
_________________________________________________________________
 Layer (type)                Output Shape              Param #
=================================================================
 conv2d_2 (Conv2D)           (None, 26, 26, 6)         60
 max_pooling2d_2 (MaxPooling  (None, 13, 13, 6)        0
 2D)
 conv2d_3 (Conv2D)           (None, 11, 11, 3)         165
 max_pooling2d_3 (MaxPooling  (None, 5, 5, 3)          0
 2D)
 flatten_2 (Flatten)         (None, 75)                0
 dropout (Dropout)           (None, 75)                0
 dense_4 (Dense)             (None, 100)               7600
 dropout_1 (Dropout)         (None, 100)               0
 dense_5 (Dense)             (None, 10)                1010
=================================================================
Total params: 8,835
Trainable params: 8,835
Non-trainable params: 0
_________________________________________________________________
Epoch 1/10