Model: "sequential_1"
_________________________________________________________________
 Layer (type)                Output Shape              Param #
=================================================================
 conv2d_1 (Conv2D)           (None, 26, 26, 32)        320
 max_pooling2d (MaxPooling2D  (None, 13, 13, 32)       0
 )
 flatten (Flatten)           (None, 5408)              0
 dropout (Dropout)           (None, 5408)              0
 dense (Dense)               (None, 100)               540900
 dropout_1 (Dropout)         (None, 100)               0
 dense_1 (Dense)             (None, 10)                1010
=================================================================
Total params: 542,230
Trainable params: 542,230
Non-trainable params: 0
_________________________________________________________________
Epoch 1/10
  15/1875 [..............................] - ETA: 22s - loss: 1.8119 - accuracy: 0.3792
[34m[1mwandb[39m[22m: [33mWARNING[39m The save_model argument by default saves the model in the HDF5 format that cannot save custom objects like subclassed models and custom layers. This behavior will be deprecated in a future release in favor of the SavedModel format. Meanwhile, the HDF5 model is saved as W&B files and the SavedModel as W&B Artifacts.
…
